demo/model.onnx (onnx, 710867 bytes, 27 tensors)

block2.downsample.weight f4 [16, 8, 1, 1]
0	0xbdd0446d	-0.10169301
1	0x3d73320d	0.059373904
2	0xbdb0c5a5	-0.08631448
3	0x3d682747	0.056678083
4	0x3e3333e4	0.17500263
5	0xbc1283c0	-0.008942544
6	0x3e27bec3	0.16381364
7	0xbdcb39a5	-0.09923104
8	0x3e399acf	0.18125461
9	0x3e2a7d18	0.16649282
10	0x3ded6c93	0.115929745
11	0x3e910757	0.28325912
12	0x3e172e81	0.14763834
13	0x3db62eb2	0.08895625
14	0x3db9e44e	0.09076749
15	0x3d5b2cf0	0.053509653
16	0x3dc503b1	0.09619845
17	0x3eaf9424	0.3429271
18	0x3e0155bb	0.1263036
19	0x3eaa5b9c	0.33273017
20	0x3e958224	0.29200852
21	0xbcb7efaf	-0.022453157
22	0x3dd0d325	0.101965226
23	0x3d8ebd91	0.06969751
24	0x3e158a93	0.14603643
25	0xbd744804	-0.059638992
26	0xbcbc94fa	-0.023020256
27	0x3e1bb59a	0.15205994
28	0x3e76d34b	0.2410404
29	0xbdca73ef	-0.09885394
30	0x3b09ee87	0.0021046714
31	0x3e46fd51	0.1943257
32	0x3d1e520c	0.038652465
33	0xbd07a102	-0.033112533
34	0x3e05c7a2	0.13064435
35	0x3eafe235	0.3435227
36	0x3e7531a4	0.23944718
37	0x3e2243b6	0.15846142
38	0xbc0e3823	-0.008680376
39	0x3e8ad3a2	0.27114588
40	0x3e026298	0.12732923
41	0xbd6e977c	-0.058249936
42	0x3d9283f0	0.07154071
43	0x3ebbe23d	0.36696044
44	0xbcf5a7b1	-0.029987188
45	0x3e60a8ba	0.21939364
46	0x3e52bfe3	0.20581011
47	0x3d47a8c9	0.04874495
48	0x3e8baad2	0.27278763
49	0x3e02684a	0.12735096
50	0x3e84355d	0.25821963
51	0x3e414335	0.18873294
52	0x3da9e3bb	0.08295389
53	0x3e1d6fca	0.15374675
54	0xbc8e00a8	-0.017334297
55	0x3e50c53e	0.20387742
56	0x3e6e2e8d	0.23259945
57	0x3e8fba39	0.28071764
58	0x3b88f93b	0.004180101
59	0x3b2c7fd5	0.002632131
60	0x3e122252	0.14270905
61	0xbe19adb0	-0.15007663
62	0x3e8f2cc4	0.2796384
63	0x3e1a1337	0.15046392
64	0x3e8a5be3	0.2702323
65	0x3deba253	0.1150557
66	0xbc16c873	-0.009203064
67	0x3dc6eb6d	0.09712873
68	0x3b723430	0.0036957376
69	0x3d2ae51e	0.04172241
70	0x3c85c98d	0.016331458
71	0x3dbcf878	0.09227079
72	0x3e17ab97	0.1481155
73	0x3e8be2ff	0.27321622
74	0x3d85704f	0.06515562
75	0x3e4bd60a	0.19905868
76	0xb95e9d6d	-0.00021230215
77	0x3d11a4b6	0.03555747
78	0x3db6c36f	0.08923995
79	0x3d617dde	0.055051677
80	0x3e1851cd	0.14874955
81	0x3cb4d200	0.022072792
82	0x3e3c3813	0.18380766
83	0x3e36d417	0.17854343
84	0x3dc3bd9f	0.09557652
85	0x3e64c987	0.22342502
86	0x3e0a5ecd	0.13512726
87	0x3e299ccb	0.16563718
88	0x3de1689a	0.11006279
89	0x3d08ed81	0.033429626
90	0x3e449197	0.19196163
91	0x3d42510c	0.047440574
92	0x3e38a240	0.18030643
93	0x3c731e09	0.014838704
94	0x3dab644b	0.08368739
95	0x3df4502a	0.119293526
96	0x3d79bf74	0.0609736
97	0x3e68c38c	0.22730845
98	0x3e842f5a	0.25817376
99	0x3e706167	0.23474656
100	0x3a925666	0.0011164665
101	0x3df95746	0.12174849
102	0xbd4f21f3	-0.050569486
103	0x3cdfc7b6	0.02731691
104	0x3da76399	0.081732936
105	0xbd968153	-0.073488854
106	0x3c80162f	0.015635578
107	0x3eab8b57	0.33504745
108	0xbdbd7409	-0.092506476
109	0xbe7b5f66	-0.2454811
110	0x3d59dfc5	0.05319192
111	0xbd035981	-0.03206778
112	0x3e10cc56	0.14140448
113	0x3defaaba	0.117024854
114	0xbc9abb96	-0.018888276
115	0x3e0ab96f	0.135473
116	0x3e3f4b8f	0.18681167
117	0x3e222234	0.1583336
118	0xbd6ce50c	-0.057835624
119	0x3cb5bd70	0.022185057
120	0x3e80f407	0.25186178
121	0x3da2f624	0.07957104
122	0x3eb79e80	0.35863113
123	0x3e73c7ec	0.23806733
124	0xbccd3b1f	-0.025052605
125	0x3e91e69b	0.2849625
126	0x3c0427ce	0.008066131
127	0x3daa2cbd	0.083093144

block2.downsample.bias f4 [16]
0	0x3f3da357	0.7407736
1	0x3e05491f	0.13016175
2	0x3eb3ab03	0.3509141
3	0x3f1c0dbc	0.60958457
4	0x3ebdb7fe	0.37054437
5	0x3ee835bb	0.45353493
6	0x3e7cee4e	0.24700281
7	0x3f28594a	0.65761244
8	0x3f2c8706	0.6739353
9	0x3e30ed44	0.1727801
10	0x3e88330c	0.26601446
11	0x3f329e2d	0.6977261
12	0x3e8b437f	0.27199933
13	0xbd814e3c	-0.0631375
14	0x3f308659	0.68955
15	0x3e963e8d	0.29344597

block3.downsample.weight f4 [48, 16, 1, 1]
0	0xbd9d5536	-0.07682268
1	0x3e4311d7	0.19049774
2	0xbda95c13	-0.08269515
3	0x3d05dafc	0.032679543
4	0x3e3cd589	0.18440832
5	0x3de33b11	0.110952504
6	0x3daf2a25	0.0855296
7	0x3d40bd20	0.047055364
8	0xbd5b2e08	-0.053510696
9	0xbd8e16c2	-0.069379345
10	0x3dd9f936	0.10643236
11	0x3e2a77b6	0.16647229
12	0x3d452d40	0.048138857
13	0xbdf79b6b	-0.120901905
14	0xbdc27a08	-0.09495932
15	0x3cae4e71	0.021277638
16	0x3dd39686	0.103314444
17	0x3dab7c42	0.0837331
18	0xbe0d1fbc	-0.13781637
19	0x3df22865	0.11824111
20	0x3e437118	0.1908611
21	0x3d7c5856	0.06160768
22	0x3dd7f341	0.10544444
23	0xbc417dce	-0.011809779
24	0x3df94750	0.12171805
25	0x3c2b22c2	0.010445299
26	0xbdae2ade	-0.0850427
27	0xbdc07817	-0.09397905
28	0x3d53be7f	0.051695343
29	0xbd6f125a	-0.05836711
30	0x3d264dfc	0.040601715
31	0xbdeefce9	-0.116693325
32	0x3da1d40f	0.07901775
33	0x3d198c26	0.03748717
34	0xbd01d77d	-0.031699646
35	0xbe0faa00	-0.14029694
36	0xbe285ae7	-0.16440926
37	0xbe3e320a	-0.18573776
38	0x3dab36db	0.08360072
39	0x3dd19ae3	0.102346204
40	0x3e1abd87	0.15111361
41	0xbe109835	-0.14120562
42	0x3e59e84d	0.21280022
43	0xbd1c8f80	-0.03822279
44	0xbdfcb7f9	-0.123397775
45	0x3e0cfe7f	0.13768958
46	0xbd3a17fb	-0.045433026
47	0xbd4f286e	-0.050575666
48	0x3e606133	0.21912079
49	0x3e29efa2	0.16595319
50	0x3d32db05	0.043665905
51	0xbe154b72	-0.14579561
52	0xbe000b7f	-0.12504385
53	0x3d4e0020	0.050293088
54	0x3dd69e43	0.10479405
55	0x3bdb6df7	0.0066964584
56	0xbd44c76c	-0.048041746
57	0x3dc0d180	0.09414959
58	0xbe78839b	-0.24268954
59	0x3d361374	0.044452146
60	0xbe67a06f	-0.22619794
61	0x3e21885f	0.15774678
62	0xbe10e107	-0.14148341
63	0xbd3c587a	-0.045982815
64	0xbdf3084b	-0.11866816
65	0x3e3f2444	0.18666178
66	0x3d7ee7d2	0.0622328
67	0xbca6d157	-0.020363493
68	0xbcc7fa67	-0.024411393
69	0x3cf27683	0.029597526
70	0x3e049624	0.12947899
71	0x3d90ec96	0.07076375
72	0xbd1576ce	-0.036490254
73	0x3de986e3	0.11402681
74	0x3def49c9	0.11683995
75	0x3e1dbece	0.15404817
76	0x3c4c2657	0.012460313
77	0x3e3686ad	0.17824812
78	0xbd00b99f	-0.031427022
79	0x3cc3b93e	0.023892041
80	0xbdac8b9e	-0.08425067
81	0x3e210be7	0.15727197
82	0x3e1ff95e	0.1562247
83	0x3e3df067	0.18548737
84	0x3da81ff3	0.08209219
85	0xbd83833d	-0.06421516
86	0x3e80b745	0.25139824
87	0xbda42722	-0.080152765
88	0x3e34bc04	0.17649847
89	0xbe0f0411	-0.13966395
90	0xbe046b75	-0.12931617
91	0x3e756691	0.23964907
92	0xbd4414d7	-0.047871437
93	0xbdfe91f6	-0.124301836
94	0x3df0dc9f	0.1176083
95	0x3db45e38	0.08807033
96	0x3e35bb59	0.17747249
97	0x3b0fb3b6	0.0021927184
98	0xbd1e5ac4	-0.03866078
99	0xbdd71727	-0.10502463
100	0x3daabbe0	0.083366156
101	0xbe032719	-0.12807883
102	0xbe076dd9	-0.13225497
103	0x3c06b34e	0.0082214605
104	0x3dd6ba14	0.1048471
105	0x3e40fae5	0.18845709
106	0xbe10d2f1	-0.14142968
107	0x3db3369b	0.087506495
108	0x3d284d55	0.041089375
109	0x3e0442e3	0.1291614
110	0x3e873f84	0.26415646
111	0x3d897d5e	0.06713365
112	0x3dd782fb	0.105230294
113	0x3dbce129	0.092226334
114	0xbd7552bd	-0.05989336
115	0xbde53305	-0.11191372
116	0x3da106c5	0.07862619
117	0x3dedc9c4	0.11610749
118	0x3b6d3283	0.0036193437
119	0xbc4fa542	-0.012673678
120	0x3e23f092	0.16009739
121	0xbd153487	-0.036427047
122	0x3d63d810	0.055625975
123	0x3daeceab	0.085355125
124	0x3bbd5891	0.00577838
125	0x3beeb414	0.0072846506
126	0x3e56ce60	0.20977163
127	0x3e21ef19	0.15813865
128	0xbd97810a	-0.07397659
129	0xbda9e27e	-0.08295153
130	0x3e5196e3	0.20467715
131	0xbd27f0f5	-0.04100128
132	0x3cd1cfb0	0.025611728
133	0x3df9517b	0.12173744
134	0xbc88b4a3	-0.016687697
135	0x3e50971a	0.2037014
136	0x3d77141d	0.060321916
137	0xbdff0786	-0.12452607
138	0x3c773a9a	0.015089655
139	0x3dd68548	0.1047464
140	0x3d8e3b39	0.069448896
141	0xbdc5ab60	-0.09651828
142	0x3b15a6df	0.0022835059
143	0x3e5f783e	0.21823213
144	0xbde77d60	-0.1130321
145	0x3e144392	0.14478901
146	0x3de26363	0.11054113
147	0x3d8d758c	0.06907186
148	0xbdcf88ea	-0.10133536
149	0x3e2e6148	0.17029297
150	0xbddd4e9c	-0.10806009
151	0x3e33b82e	0.17550728
152	0x3e60a5a6	0.2193819
153	0xbdf02d21	-0.11727358
154	0x3e330c9b	0.17485277
155	0xbd5ecd92	-0.054395266
156	0x3e2e5d6e	0.17027828
157	0x3d80a305	0.062810935
158	0xbcf25c57	-0.029585047
159	0x3d3d0067	0.04614296
160	0x3d3b67dd	0.04575335
161	0x3dec27e1	0.11531044
162	0xbdd11cd3	-0.10210576
163	0x3d6ec35a	0.05829177
164	0x3e4b3444	0.19844157
165	0x3c37608f	0.011192455
166	0x3e21629e	0.15760276
167	0xbc524a8e	-0.012835158
168	0xbc727e60	-0.014800638
169	0x3d80c878	0.062882364
170	0xbdd12f8f	-0.10214149
171	0x3e49fadf	0.19724606
172	0xbcbccbf2	-0.023046467
173	0x3cbf0f6d	0.023322785
174	0xbda61884	-0.08110145
175	0x3d907e16	0.07055299
176	0xbe4f78ea	-0.20260969
177	0x3d930de6	0.07180385
178	0x3e1f9283	0.15583234
179	0xbe16b506	-0.14717492
180	0x3dc653f2	0.0968398
181	0xbd420ab5	-0.047373492
182	0x3d96c9f6	0.0736274
183	0xbe0c1bef	-0.13682531
184	0x3e44f19e	0.19232795
185	0xbd0371d3	-0.032090973
186	0x3e89e614	0.26933348
187	0xbe4af082	-0.19818309
188	0xbe466e60	-0.19378042
189	0xbd152843	-0.03641535
190	0x3dd81a63	0.10551908
191	0x3e65b39e	0.224318
192	0xbdaa3c59	-0.08312292
193	0xbda0a9c3	-0.078448795
194	0x3d8518d1	0.06498874
195	0x3dcadafc	0.09905049
196	0x3e3f4625	0.18679102
197	0xbe2054e1	-0.15657379
198	0x3e0bcabd	0.13651557
199	0x3e3205ee	0.17385074
200	0xbd0332d1	-0.032030884
201	0x3c5f3bc4	0.013625089
202	0xbdce6019	-0.10076923
203	0x3d4a7433	0.049427222
204	0x3daf3a00	0.085559845
205	0xbd763cf3	-0.06011672
206	0x3e3033e6	0.17207298
207	0x3e53a90b	0.20669954
208	0x3d0c97f9	0.03432462
209	0x3d9f17b2	0.077681914
210	0xbd84cb7b	-0.06484123
211	0x3e107032	0.14105299
212	0x3d788e25	0.060682435
213	0x3e13ac80	0.14421272
214	0xbd90d455	-0.07071749
215	0x3ad5eda0	0.0016321428
216	0xbce0d122	-0.027443472
217	0x3d4ebb8e	0.050471835
218	0x3e2f7efd	0.17138286
219	0x3dd417eb	0.103561245
220	0x3dcfa9dd	0.10139821
221	0xbd370682	-0.04468394
222	0x3cb9137d	0.0225923
223	0x3d37b403	0.044849407
224	0xbd977eed	-0.07397256
225	0x3d6bf0d3	0.057602715
226	0x3ddddc87	0.10833078
227	0x3da53074	0.08065882
228	0x3b1daec8	0.0024060477
229	0x3c960f0e	0.018317726
230	0xbe374c37	-0.17900167
231	0xbd6557a4	-0.055991784
232	0xbcc89f3f	-0.024489997
233	0x3de1b1dd	0.11020253
234	0x3dd7003e	0.10498093
235	0x3e424ff9	0.1897582
236	0x3d1d7ccf	0.038449105
237	0x3dfee444	0.12445882
238	0x3d035285	0.03206112
239	0x3ce218c6	0.027599704
240	0xbdc7ca4e	-0.097553834
241	0x3e2f8952	0.17142227
242	0xbe3f912e	-0.18707725
243	0x3e20b5ef	0.15694402
244	0x3e193608	0.14962018
245	0x3d6122ec	0.054964945
246	0x3e1d843f	0.15382479
247	0x3bdcaa97	0.006734203
248	0x3dbd6aea	0.09248908
249	0x3db9fa18	0.09080905
250	0xbd343c0a	-0.04400257
251	0x3dd2b66d	0.10288701
252	0x3dadad2d	0.08480296
253	0xbdc299d3	-0.09501996
254	0x3dc0bffa	0.094116166
255	0x3de18af7	0.110128336

block3.downsample.bias f4 [48]
0	0x3e94cab8	0.29060912
1	0x3eb1dd6d	0.34739247
2	0x3e19c0a3	0.15014891
3	0xbe3fa156	-0.18713889
4	0x3a17db7f	0.00057929003
5	0xbd79ceed	-0.060988355
6	0xbd9fff06	-0.07812314
7	0xbd8b5174	-0.06802645
8	0x3e71a3c0	0.23597622
9	0x3e3dd6ad	0.18538924
10	0x3d7f7e24	0.062376156
11	0x3dc1a745	0.09455732
12	0xbe11f886	-0.1425496
13	0xbd240e4d	-0.0400527
14	0x3dc5cc91	0.096581586
15	0x3e9a8d08	0.30185723
16	0xbda317c0	-0.07963514
17	0xbe074ce5	-0.13212927
18	0x3eac95c7	0.3370802
19	0x3e258bc6	0.161666
20	0x3d82df4d	0.063902475
21	0xbe809d50	-0.2512002
22	0xbdfc9244	-0.123325855
23	0x3e604969	0.21903004
24	0x3e20a673	0.15688495
25	0x3cd1fab0	0.025632232
26	0xbdced067	-0.10098343
27	0x3e4b309f	0.19842766
28	0x3d430d1c	0.047619924
29	0x3ec1681a	0.37774736
30	0x3da7f889	0.08201701
31	0x3cfbd894	0.030742921
32	0x3e9093ba	0.28237706
33	0xbca20c3b	-0.019781223
34	0x3e42caf0	0.19022727
35	0xbe447398	-0.1918472
36	0x3cec4dc6	0.028845679
37	0x3eb844a9	0.35989884
38	0x3e3ec8a1	0.18631221
39	0x3e059384	0.13044554
40	0x3d970d73	0.07375612
41	0x3e1f4448	0.15553391
42	0x3d6e7c59	0.058224056
43	0x3e05773d	0.13033767
44	0x3e682382	0.22669795
45	0x3ed617db	0.41815075
46	0xbbfe85ab	-0.0077673993
47	0x3cf1dd4c	0.029524468

block4.downsample.weight f4 [96, 48, 1, 1]
0	0xbcfd3f7b	-0.030914059
1	0x3c0a65cc	0.008447122
2	0x3d37211b	0.044709306
3	0xbdc32b75	-0.09529773
4	0xbce066b6	-0.027392726
5	0x3d5a3065	0.05326881
6	0x3cd3f90b	0.025875589
7	0xbdca383f	-0.09874009
8	0xbc217861	-0.009855361
9	0x3d9db8ed	0.077012874
10	0xbdd5a54b	-0.10431918
11	0xbdcd1672	-0.10014047
12	0xbcb9f0e5	-0.022697875
13	0x3cc92624	0.02455432
14	0xbddb9756	-0.107222244
15	0xba011502	-0.000492409
16	0x3dab3d25	0.08361272
17	0x3d8cdf95	0.068785824
18	0xbc809fa4	-0.015701123
19	0x3dc88b87	0.09792238
20	0x3ccd5c9f	0.02506858
21	0x3e02618e	0.12732527
22	0xbda0398a	-0.07823475
23	0x3d689d38	0.05679056
24	0x3d7eb00b	0.062179606
25	0xbd26adab	-0.040692966
26	0xbc92494a	-0.017857213
27	0xbd43c0ab	-0.047791164
28	0xbcc20f9c	-0.023689084
29	0x3d5fb98c	0.05462031
30	0xbd98efce	-0.07467614
31	0xbda526b7	-0.08064025
32	0xbd1b2460	-0.037876487
33	0xbd8351c1	-0.06412078
34	0xbde25843	-0.11051991
35	0xbde5ca79	-0.11220259
36	0x3d79749f	0.060902234
37	0x3d41082d	0.047126938
38	0x3d37f724	0.044913426
39	0x3db8918d	0.090121366
40	0xbda36c28	-0.079796135
41	0x3de35679	0.11100478
42	0x3de562f7	0.11200517
43	0xba977fb1	-0.0011558441
44	0xbd5faace	-0.05460625
45	0xbb8cb09f	-0.004293516
46	0xbd30a2b8	-0.04312393
47	0xbdfe178d	-0.12406836
48	0xbdd7392e	-0.10508953
49	0xbd988ef9	-0.07449145
50	0xbd5a8807	-0.053352382
51	0xbd063097	-0.032761183
52	0xbbf9cc64	-0.007623242
53	0x3d6a66bb	0.057226878
54	0xbd8dc861	-0.06922985
55	0x3dd1e0ac	0.10247931
56	0xbcbdc808	-0.023166671
57	0x3ddd5faa	0.10809262
58	0xbd49255b	-0.04910789
59	0xbd4b5cae	-0.049648933
60	0x3d77be8f	0.060484465
61	0x3b007f84	0.0019607255
62	0x3d68118e	0.056657366
63	0x3cc7d985	0.024395714
64	0xbd34164b	-0.043966573
65	0xbc265a3d	-0.01015335
66	0x3ae4cd71	0.0017456246
67	0xbd9ee8de	-0.0775926
68	0xbdbe251e	-0.09284423
69	0x3dab2e08	0.08358389
70	0xbd8636a9	-0.06553394
71	0x3e0a5fd2	0.13513115
72	0x3afd7b0d	0.001933904
73	0x3d91cd24	0.071192056
74	0x3df25cb1	0.11834086
75	0x3dd8a343	0.10578015
76	0xbd247ae4	-0.04015626
77	0xbde9b1cf	-0.114108674
78	0x3de069ce	0.10957681
79	0x3ddfff27	0.10937338
80	0x3db04062	0.0860603
81	0xbd285476	-0.041096173
82	0x3bcfd9e9	0.0063431156
83	0x3d7d12a3	0.06178535
84	0x3da25e92	0.07928194
85	0x3cd3e9e3	0.025868362
86	0xbd46bd89	-0.0485206
87	0xbb9b389c	-0.004736973
88	0xbdddc550	-0.1082865
89	0x3c720592	0.014771836
90	0x3d8c3a4b	0.06847056
91	0xbd4259d4	-0.047448948
92	0xbd80dc0a	-0.06291969
93	0x3df7c41f	0.12097954
94	0x3c5291bb	0.012852128
95	0x3da2e4fa	0.0795383
96	0xbdaf982e	-0.08573948
97	0xbd11b63c	-0.035574183
98	0xbccae453	-0.024767077
99	0x3da1068b	0.07862576
100	0xbde8d105	-0.11367992
101	0xbd3dbbaa	-0.04632155
102	0x3dba3f86	0.090941474
103	0xbd72e20c	-0.059297606
104	0xbd324486	-0.04352238
105	0x3d6f4651	0.05841667
106	0x3d5dd63c	0.054159388
107	0xbd4eb979	-0.05046985
108	0xbdc43a6d	-0.09581456
109	0x3da93dc8	0.08263737
110	0xbd577877	-0.05260512
111	0xbd13da0e	-0.036096625
112	0xbcdc5ce1	-0.026899757
113	0x3e49f676	0.19722924
114	0x3d965252	0.0733992
115	0x3db43982	0.08800031
116	0xbde77cd5	-0.11303107
117	0xbda30958	-0.079607666
118	0xbc26f822	-0.010190995
119	0xbdedf2d9	-0.11618585
120	0xbdfe570a	-0.12418945
121	0x3dedf037	0.11618083
122	0xbd906e5b	-0.07052299
123	0x3e045c36	0.129258
124	0x3e2700cc	0.16308898
125	0x3abad34c	0.0014253645
126	0x3d9b9ce9	0.075982876
127	0x3e31d0e9	0.17364849
128	0x3d744540	0.059636354
129	0xbd120cfe	-0.03565692
130	0xbd86774f	-0.06565725
131	0xbdea50de	-0.114412054
132	0x3c91c67e	0.017794844
133	0xbcac1d29	-0.021009998
134	0xbdce4386	-0.10071473
135	0x3d93b87e	0.072129235
136	0x3d34d9a6	0.04415288
137	0x3b869579	0.004107174
138	0xbe45f245	-0.193307
139	0x3d65c8c3	0.056099664
140	0xbc79d180	-0.015247703
141	0x3daa8a12	0.08327116
142	0xbd0e8f05	-0.034804363
143	0x3d5b9c1b	0.05361567
144	0xbdef97d5	-0.116988815
145	0x3e0348a7	0.12820683
146	0x3d90a67c	0.070630044
147	0xbd1cf3af	-0.038318332
148	0xbdc9e669	-0.098584004
149	0x3d4d2157	0.050080623
150	0xbe2e3e33	-0.17015915
151	0xbd731972	-0.05935044
152	0x3e0259d1	0.12729575
153	0x3d8b4957	0.06801098
154	0x3d7d1138	0.061784
155	0x3e0ce982	0.13760951
156	0x3c9518b9	0.018200265
157	0xbda8a8f0	-0.08235347
158	0xbb327b07	-0.0027233975
159	0xbc8f9a39	-0.017529594
160	0xbd1d7d0a	-0.038449325
161	0x3dd6a0d2	0.10479893
162	0xbc5674a2	-0.013089331
163	0x3da519ef	0.08061587
164	0x3dfa6a23	0.12227275
165	0x3cd61258	0.026131794
166	0x3ca11372	0.019662593
167	0x3deb1f0d	0.11480532
168	0x3dbcf252	0.092259064
169	0x3d91bf5a	0.071165755
170	0x3de39991	0.11113275
171	0x3e150e7c	0.14556307
172	0xbadc4eda	-0.0016808168
173	0xbe0aff05	-0.13573845
174	0xbd7986d8	-0.060919613
175	0xbde1c622	-0.11024119
176	0xbd08736c	-0.0333132
177	0xbcef2bbb	-0.029195657
178	0xbc91c8ba	-0.01779591
179	0xbdef914c	-0.11697635
180	0x3d2ed0ed	0.042679716
181	0xbc8dd4c4	-0.017313369
182	0xbdedc9a5	-0.11610726
183	0x3dfb090c	0.12257585
184	0xbdb8ae46	-0.09017615
185	0x3da106d0	0.078626275
186	0xbd7c766e	-0.06163638
187	0xbd504ac3	-0.05085255
188	0x3de54d5f	0.11196398
189	0xbe028a0c	-0.12747973
190	0xbdfba4b7	-0.12287276
191	0xbd46ca84	-0.048532978
192	0xbdb206d1	-0.086927064
193	0xbd024ebb	-0.031813364
194	0xbd930f89	-0.071806975
195	0xbd8d6e4c	-0.06905803
196	0x3e09db57	0.13462578
197	0xb9fc42b3	-0.0004811488
198	0x3d819322	0.063268915
199	0x3d3e0350	0.046389878
200	0xbc8f7dc5	-0.017516026
201	0x3ddec7e1	0.108779676
202	0x3e007876	0.12545952
203	0x3d250870	0.04029125
204	0x3c8d80e5	0.017273376
205	0x3d4a57bc	0.049400076
206	0x3dd34f7b	0.10317894
207	0x3e03ae72	0.12859514
208	0x3e10ec2e	0.14152595
209	0x3c70de83	0.014701488
210	0xbd8957eb	-0.06706222
211	0xbc0e67e5	-0.008691763
212	0xbdcb860e	-0.09937678
213	0xbdc6bef3	-0.097043894
214	0x3e171a7d	0.14756198
215	0x3d0d0c92	0.034435816
216	0xbd9a1989	-0.07524402
217	0xbd7cc133	-0.061707687
218	0x3d0aecea	0.033917345
219	0xbb04b844	-0.0020251432
220	0x3d26709b	0.040634733
221	0x3d166d92	0.03672559
222	0x3d343245	0.043993253
223	0x3dc1aa31	0.094562896
224	0xbdb6db70	-0.08928573
225	0x3b842387	0.0040325555
226	0x3dbcabc7	0.092124514
227	0xbddec324	-0.10877064
228	0xbce01ea3	-0.027358359
229	0xbe03b6b2	-0.12862661
230	0xbd24be24	-0.040220395
231	0xbd32869e	-0.043585412
232	0x3e102415	0.14076264
233	0xbd2f6d88	-0.042829067
234	0x3da160b8	0.07879776
235	0xbcbbcc80	-0.022924662
236	0xbc08341a	-0.008313203
237	0x3c7c69da	0.015406096
238	0xbdab7d78	-0.08373541
239	0xbdf7cf07	-0.12100034
240	0x3de08c55	0.10964266
241	0x3dc5fe57	0.09667652
242	0xbc8740b5	-0.016510347
243	0x3cb75e53	0.022383844
244	0x3da39feb	0.07989486
245	0x3de27a88	0.11058527
246	0xbdbeb304	-0.09311488
247	0x3d36a6d9	0.044592712
248	0xbe07c1f4	-0.13257581
249	0x3e10de2f	0.14147256
250	0xbd8fb7ae	-0.07017456
251	0x3dc92dd4	0.09823194
252	0xbda98a76	-0.082783625
253	0x3b73cd7e	0.003720134
254	0x3dd7f7db	0.105453216
255	0x3d0a5b32	0.033778377

block4.downsample.bias f4 [96]
0	0x3b41f411	0.0029594938
1	0x3e0aeb6b	0.13566367
2	0x3e24b448	0.16084397
3	0x3e126390	0.14295793
4	0xbd45fbd7	-0.048335876
5	0x3dfd09a3	0.12355354
6	0x3cc10890	0.023563653
7	0xbd828f62	-0.06375004
8	0xbdbba767	-0.09162789
9	0xbdaee5d2	-0.085399285
10	0xbdc44550	-0.09583533
11	0xbddf01a8	-0.10888988
12	0xbd8592df	-0.06522154
13	0xbdd7d7ca	-0.10539205
14	0xbda2a7e6	-0.0794218
15	0xbb8ba9a3	-0.0042621656
16	0xbdf53b04	-0.11974147
17	0x3e11b1dc	0.14228004
18	0x3d87eb30	0.06636655
19	0xbdc3c979	-0.09559912
20	0x3db98680	0.09058857
21	0x3e209759	0.15682735
22	0x3e280271	0.16407181
23	0x3db7b2c7	0.08969646
24	0x3dce03d8	0.10059327
25	0xbdd9da54	-0.10637346
26	0xbda7b117	-0.08188074
27	0xbc9e3f89	-0.019317405
28	0x3d9a305e	0.075287566
29	0xbdfa1452	-0.12210907
30	0xbdeccf1d	-0.11562941
31	0xbc823bef	-0.01589772
32	0x3df4f662	0.11961056
33	0x3df7e42e	0.12104069
34	0x3cd7dc7f	0.026350258
35	0xbe0f1bdf	-0.13975476
36	0x3d647a2b	0.05578057
37	0x3cfc1a6a	0.030774314
38	0xbe139131	-0.14410855
39	0x3ddfd19c	0.10928652
40	0xbcfe6d14	-0.031057872
41	0x3d0b594c	0.034020707
42	0xbd9ff2e1	-0.07809997
43	0xbb4f5a6f	-0.0031639596
44	0x3d88e8f8	0.0668506
45	0xbdb16d72	-0.08663453
46	0xbe0a8bb4	-0.13529855
47	0xbd086600	-0.0333004
48	0x3e260987	0.16214572
49	0x3d38d4ee	0.04512494
50	0x3e09056d	0.13380976
51	0x3d886129	0.06659157
52	0x3e20e6e2	0.15713075
53	0xbd94f238	-0.07272762
54	0x3de611d2	0.11233868
55	0x3dd8d547	0.105875544
56	0xbe24e81f	-0.16104172
57	0xbe14bf40	-0.14526081
58	0xbdea6c33	-0.114464186
59	0x3e0b1d53	0.13585405
60	0x3de42e5e	0.11141656
61	0xbdc323e3	-0.09528329
62	0xbe0f7811	-0.14010645
63	0xbd885db1	-0.06658495
64	0xbd1ce469	-0.038303766
65	0x3de0a8bc	0.109696835
66	0x3e25dfdc	0.16198677
67	0x3bc1fdc2	0.005920143
68	0xbe0003a9	-0.12501396
69	0x3db6e956	0.08931224
70	0xbc8867a5	-0.016650984
71	0x3e165c17	0.14683567
72	0x3d1cbfb5	0.038268764
73	0x3e01ab1e	0.12662932
74	0xbcd6367a	-0.026149023
75	0x3e007376	0.12544045
76	0x3dfd847f	0.12378787
77	0x3dee7096	0.11642568
78	0x3dd70e1e	0.105007395
79	0x3d2a7152	0.041611977
80	0xbd7a69a6	-0.06113591
81	0xbb1223b2	-0.0022299108
82	0x3d7a6ac8	0.06113699
83	0xbda3d027	-0.07998686
84	0x3da6eb07	0.08150297
85	0x3d83d593	0.064372204
86	0x3d97340b	0.07382973
87	0x3d3a4a8c	0.04548125
88	0xbdbd6f16	-0.092497036
89	0x3e191aa9	0.14951576
90	0x3d8cc20d	0.0687295
91	0x3e0589a0	0.13040781
92	0xba7c2b6e	-0.00096195086
93	0xbda3cc30	-0.0799793
94	0x3c9fc58b	0.019503376
95	0x3d1ba72f	0.038001236

conv1.weight f4 [24, 8, 1, 1]
0	0xbe9ad036	-0.30236977
1	0x3e9bdd6f	0.30442378
2	0x3ce3361c	0.027735762
3	0xbebccf0d	-0.36876717
4	0xbda6d029	-0.08145172
5	0xbdbd8a72	-0.09254922
6	0xbe2b5509	-0.16731657
7	0xbeb94e54	-0.36192572
8	0x3ea590ec	0.3233713
9	0x3d74d4ed	0.059773374
10	0x3eb56780	0.35430527
11	0xbe83e78e	-0.257626
12	0xbef1ca5f	-0.4722471
13	0xbc25ea85	-0.010126715
14	0x3d443301	0.047900204
15	0x3de8e757	0.113722496
16	0x3d6e7ae8	0.05822268
17	0x3e977058	0.295779
18	0x3e0c389b	0.13693468
19	0x3ee2b4a9	0.44278458
20	0xbef2b3c5	-0.47402778
21	0x3d36dc81	0.044643883
22	0x3c977866	0.018490028
23	0xbdee869e	-0.1164677
24	0xbe812a82	-0.25227743
25	0x3f01dd1a	0.50728
26	0xbe48276f	-0.19546293
27	0xbec24d30	-0.37949514
28	0x3eb49635	0.3527085
29	0x3e8df20d	0.27723733
30	0xbeb52ace	-0.3538422
31	0xbe7d724b	-0.2475063
32	0xbde8a34d	-0.11359272
33	0x3dda6943	0.10664608
34	0x3e223a40	0.15842533
35	0xbe6c7c30	-0.23094249
36	0x3e9b4580	0.30326462
37	0x3f07acac	0.5299785
38	0xbe92166f	-0.2853274
39	0xbd877fac	-0.06616148
40	0x3e67a01d	0.22619672
41	0x3e817e46	0.2529165
42	0xb916be18	-0.0001437593
43	0x3ecc36e4	0.39885628
44	0xbee3084a	-0.44342262
45	0x3d203648	0.039114267
46	0xbe195a0f	-0.14975761
47	0x3e4f15d3	0.20223169
48	0x3d96fd75	0.07372562
49	0x3d7b19ce	0.061303906
50	0x3ef87ea6	0.48534125
51	0x3d6dc48a	0.058048762
52	0x3e9a30b2	0.30115277
53	0xbdf54375	-0.11975757
54	0xbe60673f	-0.21914385
55	0x3cbecb25	0.023290226
56	0xbef87f12	-0.48534447
57	0x3ea4fc9a	0.3222397
58	0x3e8b4b32	0.27205807
59	0x3db8723d	0.09006164
60	0x3e9dff23	0.30858716
61	0xbd695577	-0.05696627
62	0xbe0ac3ff	-0.13551329
63	0xbe26a4d5	-0.16273816
64	0xbbe94c55	-0.007119695
65	0x3df359dd	0.118823744
66	0x3e6f8c80	0.2339344
67	0x3edbb2e3	0.42909917
68	0xbe6aeca1	-0.2294183
69	0x3ec1279b	0.3772553
70	0x3dce518c	0.100741476
71	0x3e74d725	0.23910196
72	0x3eeb6ce2	0.45981508
73	0xbe849511	-0.2589498
74	0xbdd2e6e4	-0.10297945
75	0x3e650f0e	0.22369024
76	0xbe9e8e2d	-0.30967847
77	0x3e452cd1	0.19255377
78	0x3e45e207	0.19324504
79	0x3d555122	0.052079327
80	0x3d9bf2dd	0.07614682
81	0xbddddde3	-0.10833337
82	0xbe924a31	-0.2857223
83	0x3eb67e1c	0.3564309
84	0x3ea4cfcf	0.32189795
85	0xbd1ac3ae	-0.03778427
86	0xbed98b6a	-0.42489177
87	0x3e2e3e8d	0.17016049
88	0xbe401c1a	-0.1876072
89	0x3ed5ec06	0.41781634
90	0xbd94f58c	-0.07273397
91	0x3e8515e8	0.25993276
92	0x3e43d8ed	0.1912572
93	0x3c969642	0.018382195
94	0x3e12f71b	0.14352076
95	0xbe01796f	-0.1264398
96	0xbed9fbee	-0.4257502
97	0x3c41464f	0.011796548
98	0x3e9df486	0.3085062
99	0x3dc62481	0.09674931
100	0xbe7c3b4f	-0.24632
101	0xbd7a1b2c	-0.06106107
102	0x3ee2b727	0.4428036
103	0xbc16a250	-0.009193972
104	0x3e1fa121	0.1558881
105	0x3e09d89a	0.13461533
106	0xbc0974a2	-0.008389624
107	0x3eaf27f1	0.3421016
108	0xbf82c42e	-1.0216119
109	0x3dd93ff9	0.10607905
110	0xbdc576ab	-0.09641775
111	0x3e9f0c38	0.3106401
112	0xbeabe62a	-0.3357404
113	0x3e4ee3cf	0.2020409
114	0x3e1b743b	0.15181057
115	0x3dd3dbce	0.10344659
116	0xbe9b4bd4	-0.3033129
117	0x3ea1f8ae	0.3163504
118	0x3d9d3074	0.07675257
119	0x3ebd6ec9	0.36998585
120	0x3eb23a95	0.3481032
121	0xbdc41ead	-0.095761634
122	0xbe0872d3	-0.13325052
123	0x3ded76ed	0.11594949
124	0x3e70f212	0.23529842
125	0x3e3ab5ae	0.18233368
126	0xbd18ced1	-0.03730661
127	0xbe79778b	-0.24362008
128	0x3c3b523b	0.0114331795
129	0x3e3c276f	0.18374418
130	0x3e16255e	0.14662692
131	0x3e86392d	0.26215497
132	0x3e3b723a	0.18305293
133	0x3ec71241	0.38881114
134	0xbde50430	-0.11182439
135	0xbe6f20da	-0.23352376
136	0x3d5962ae	0.053072624
137	0xbf31b059	-0.6940971
138	0x3e770089	0.24121298
139	0x3ea6e80b	0.3259891
140	0x3c13bf3b	0.009017761
141	0xbd7e15b8	-0.06203243
142	0x3df82bee	0.12117754
143	0x3e8a56fd	0.27019492
144	0x3e8b4245	0.27198997
145	0x3c5a0f2b	0.01330928
146	0x3e715e52	0.23571137
147	0x3e3d1e08	0.18468487
148	0xbe661afd	-0.22471233
149	0x3e84c993	0.2593504
150	0xbea9c7cd	-0.33160248
151	0x3ea0fd98	0.31443477
152	0xbe594a8b	-0.21219842
153	0xbe4151f2	-0.18878916
154	0xbd6205e8	-0.055181414
155	0x3e24bf2b	0.1608855
156	0x3e4b6c49	0.19865526
157	0x3d9a6cf3	0.07540312
158	0x3eac0253	0.33595523
159	0x3e9fb8ff	0.31195828
160	0x3e436da7	0.19084798
161	0x3eab5010	0.3345952
162	0x3e05ac7b	0.13054077
163	0xbe28b2b2	-0.16474417
164	0x3ec3c7fe	0.3823852
165	0xbe16ed0b	-0.14738862
166	0xbdcfa60e	-0.10139094
167	0x3e8bd09c	0.27307594
168	0x3e8ae38a	0.27126724
169	0x3e88a0ad	0.26685086
170	0x3de78711	0.11305059
171	0x3eb1424b	0.3462089
172	0xbe918c05	-0.2842714
173	0xbe0401cb	-0.12891309
174	0x3ea1e923	0.31623182
175	0xbf0549c3	-0.52065676
176	0x3e989267	0.29799196
177	0x3ddcdc9e	0.10784267
178	0x3e56c831	0.20974804
179	0x3eb68b80	0.35653305
180	0xbe9de87a	-0.30841428
181	0x3e6cde14	0.23131591
182	0x3e57c7a5	0.21072252
183	0xbeba8216	-0.36427373
184	0x3c9ba06d	0.018997395
185	0x3e9a8622	0.3018046
186	0x3e71eff3	0.2362669
187	0xbe29aa42	-0.16568854
188	0xbe6cfad7	-0.23142563
189	0x3e15e31b	0.14637415
190	0x3e01baed	0.12668963
191	0xbe9d963b	-0.3077868

conv2.weight f4 [24, 16, 1, 1]
0	0xbe627726	-0.22115764
1	0x3df0ad81	0.11751843
2	0xbe7464d7	-0.23866592
3	0x3e7d85e6	0.2475811
4	0x3e85de2e	0.26146072
5	0xbe99bd84	-0.300274
6	0xbdfe8f45	-0.1242967
7	0x3d5f13c1	0.0544622
8	0xbd312b4d	-0.043254185
9	0x3e28cbec	0.1648404
10	0x3dfaf041	0.12252856
11	0xbd5615bb	-0.052266818
12	0x3e493491	0.19648959
13	0xbd4edc55	-0.050503094
14	0x3e628eb4	0.2212475
15	0x3ea0b2bb	0.3138636
16	0xbdd152d6	-0.10220878
17	0x3e65ed63	0.22453837
18	0x3e22d196	0.15900263
19	0xbe308612	-0.17238644
20	0xbde384f6	-0.11109345
21	0x3d2d397a	0.042291142
22	0xbdd1d293	-0.10245242
23	0xbda1ebb6	-0.079062864
24	0x3e5f9301	0.21833421
25	0x3e636cc5	0.22209461
26	0x3c06c45a	0.008225525
27	0xbcece39d	-0.028917128
28	0x3d9b8479	0.075936265
29	0xbe2bc3b6	-0.16773877
30	0x3eabf93d	0.3358859
31	0x3d665c24	0.056240216
32	0x3e47c6fb	0.19509499
33	0xbeaa2f5b	-0.33239254
34	0xbd41a055	-0.047272045
35	0x3d8337bb	0.06407114
36	0x3e8f4d27	0.2798855
37	0x3e113508	0.14180386
38	0x3d6aa008	0.057281524
39	0xbd5ca757	-0.053870525
40	0x3e2e7052	0.17035034
41	0x3e18dde4	0.14928395
42	0x3d2aac31	0.04166812
43	0xbd7d6f7b	-0.061873894
44	0x3ead7a41	0.33882335
45	0xbd202ad6	-0.03910335
46	0x3c290a19	0.010317349
47	0xbe620188	-0.22070897
48	0x3d737ab5	0.059443194
49	0x3dded108	0.10879713
50	0x3d614826	0.055000447
51	0x3dfaf03c	0.12252852
52	0x3d498eff	0.049208637
53	0xbead3a67	-0.3383362
54	0x3cde1c38	0.027113065
55	0x3cb18bd9	0.02167313
56	0x3e40934b	0.18806188
57	0xbe9744da	-0.29544717
58	0x3e92228a	0.28541976
59	0xbbc54d86	-0.0060212044
60	0x3e684a1b	0.22684519
61	0x3db242a4	0.08704117
62	0xbe52f488	-0.20601094
63	0xbe3f3b63	-0.18674998
64	0x3dbad537	0.09122699
65	0xbe09c265	-0.13453062
66	0xbe0d8baa	-0.13822809
67	0x3ca23700	0.019801617
68	0x3e17db35	0.14829715
69	0x3dac0242	0.08398868
70	0x3e494e49	0.1965877
71	0xbe0c2e87	-0.13689624
72	0xba9eae45	-0.001210638
73	0xbdba1cdb	-0.09087535
74	0xbea18a89	-0.31551006
75	0xbd532f03	-0.051558506
76	0x3e6252b4	0.22101861
77	0x3d2657ae	0.04061096
78	0x3d83f75a	0.06443663
79	0x3e116d68	0.14201891
80	0x3cb3b3f4	0.021936394
81	0x3eb23eda	0.34813577
82	0xbd8bc805	-0.0682526
83	0xbd8b4c4a	-0.0680166
84	0x3c95f422	0.018304888
85	0x3e29044f	0.1650555
86	0x3cf222a1	0.029557528
87	0xbd85c502	-0.06531717
88	0x3dde635f	0.10858797
89	0x3cc8c657	0.024508638
90	0x3db71e44	0.089413196
91	0xbded11a3	-0.115756296
92	0xbd9245c8	-0.07142216
93	0x3e0c88fb	0.13724129
94	0xbd1cac0a	-0.038250007
95	0x3e2bb543	0.16768365
96	0x3d9c6d11	0.0763799
97	0xbdd3fab2	-0.10350551
98	0x3dd07bd4	0.10179868
99	0x3e9784fc	0.29593647
100	0xbd565e7f	-0.052336212
101	0xbdcb1401	-0.09915925
102	0xbd308845	-0.043098707
103	0x3dd85c3d	0.10564468
104	0x3e22b22c	0.1588828
105	0x3d89f538	0.06736225
106	0x3e7bb283	0.24579816
107	0x3e00fd44	0.12596613
108	0xbe380c59	-0.1797346
109	0xbd64fb3f	-0.05590367
110	0x3da1c5c4	0.07899049
111	0xbe884c52	-0.26620728
112	0xbc519138	-0.0127909705
113	0xbdbeb457	-0.09311741
114	0x3d4388ab	0.04773776
115	0xbe0b8891	-0.13626315
116	0xbdcc89a9	-0.09987194
117	0x3eb14a62	0.34627062
118	0xbd7a9925	-0.061181206
119	0x3c9b6166	0.018967342
120	0xbd95f323	-0.07321765
121	0x3d9f43e1	0.07776619
122	0xbde31651	-0.11088241
123	0x3dd96d2a	0.106165245
124	0xbe96f6d2	-0.29485184
125	0x3d1e41b0	0.038636863
126	0x3e48f18a	0.1962339
127	0x3e3b188d	0.18271084
128	0xbdace45e	-0.08441995
129	0x3dbe580c	0.09294137
130	0x3dfd2b98	0.123618305
131	0x3e9ea7fc	0.30987537
132	0xbd4e4134	-0.05035515
133	0x3d23c4bb	0.03998254
134	0x3dfd1b58	0.12358731
135	0x3e48c187	0.19605075
136	0xbdb0d26b	-0.08633884
137	0xbe307cdc	-0.1723513
138	0xbd975bee	-0.07390581
139	0xbe57c372	-0.2107065
140	0x3d835dce	0.06414376
141	0x3cb9bdfc	0.0226736
142	0x3e513e55	0.20433934
143	0xbcc82a7b	-0.024434319
144	0xbbb8db63	-0.0056413873
145	0xbc4893ce	-0.012242271
146	0x3dc08efa	0.094022706
147	0xbf0ebb93	-0.55754966
148	0xbd89224d	-0.066959955
149	0x3df2284b	0.118240915
150	0xbe02eb94	-0.12785178
151	0x3ddf80fc	0.10913274
152	0x3e02279b	0.12710421
153	0xbd98decb	-0.074643694
154	0xbdd974ec	-0.10618004
155	0x3e154f40	0.14581013
156	0xbccea6df	-0.025226055
157	0x3e106667	0.14101563
158	0x3e63fa97	0.22263561
159	0x3e17ac24	0.1481176
160	0xbcdc1d14	-0.026869334
161	0x3de96fcb	0.11398276
162	0xbd2751e7	-0.040849593
163	0x3db22b16	0.08699624
164	0x3d906530	0.0705055
165	0xbdd296c4	-0.102826625
166	0x3dd58125	0.10425023
167	0x3d8e2cf8	0.06942171
168	0x3e5d40a2	0.21606687
169	0xbdfe4869	-0.12416155
170	0xbe979a5e	-0.2960996
171	0x3e68fa94	0.22751838
172	0xbe16ef26	-0.14739665
173	0x3dbd6ffd	0.09249876
174	0x3e1c01d3	0.15235071
175	0x3e5353b1	0.20637394
176	0x3e1ddd87	0.15416537
177	0xbe278dc9	-0.1636268
178	0x3e5c1634	0.21492845
179	0x3e980bcd	0.29696503
180	0xbe2d7cc5	-0.16942127
181	0xbd9b61a2	-0.07586981
182	0x3e157ca9	0.14598335
183	0xbe2e90df	-0.17047451
184	0xbe4743c0	-0.19459438
185	0xbd8e69bc	-0.06953761
186	0x3ea99435	0.33120885
187	0xbd73ba81	-0.059504036
188	0xbcb12c87	-0.021627678
189	0xbcab54b9	-0.020914422
190	0x3e6aba55	0.22922643
191	0x3e4e0644	0.20119578
192	0x3d19e620	0.03757298
193	0x3d6dac89	0.05802587
194	0x3e911f9f	0.28344437
195	0x3e44ab83	0.19206052
196	0x3e090ad5	0.13383038
197	0xbd3ec444	-0.046573892
198	0xbdaff1c0	-0.08591032
199	0xbe537f6b	-0.20654075
200	0x3e297f6a	0.16552511
201	0xbe4cacc9	-0.19987787
202	0xbdcf66b4	-0.10127011
203	0xbe04559b	-0.12923281
204	0x3dd4336b	0.1036137
205	0x3d921a73	0.07133951
206	0x3c77545b	0.0150957955
207	0x3e86c71a	0.26323777
208	0xbe8e201e	-0.27758878
209	0x3e486991	0.1957152
210	0x3db571ca	0.08859594
211	0x3e5ba5f0	0.21450019
212	0x3e6b9d21	0.23009159
213	0x3e3eee93	0.18645696
214	0x3decd5ea	0.11564238
215	0xbdc67f94	-0.09692302
216	0x3de24093	0.11047473
217	0x3d79fd28	0.061032444
218	0x3e609314	0.21931106
219	0x3e163fcc	0.14672774
220	0x3ddfc860	0.109268904
221	0xbdfa1832	-0.12211646
222	0xbe7b34d6	-0.24531874
223	0xbe78d696	-0.24300608
224	0x3d650b0d	0.055918742
225	0x3e1dc56a	0.15407339
226	0x3deebb88	0.116568625
227	0x3e343566	0.17598495
228	0x3d76ee9c	0.06028615
229	0xbe749cac	-0.2388789
230	0x3d226564	0.039647475
231	0xbe4545c2	-0.19264892
232	0x3d3098db	0.043114524
233	0x3e18dc8d	0.14927883
234	0xbe33f00c	-0.1757204
235	0xbc452ec5	-0.0120350765
236	0x3bfc1438	0.00769284
237	0x3e2f2826	0.17105159
238	0x3d843e65	0.06457213
239	0xbd9871eb	-0.07443603
240	0x3e18f465	0.14936979
241	0x3dc80a27	0.097675614
242	0xbda7ba2c	-0.08189806
243	0x3e13bea9	0.144282
244	0xbdea156a	-0.11429866
245	0xbdf139ea	-0.11778624
246	0xbdec1056	-0.11526553
247	0xbe8baacb	-0.27278742
248	0x3dad60c8	0.08465725
249	0xbd64d624	-0.055868283
250	0x3e8793d4	0.2647997
251	0x3e495d64	0.19664532
252	0x3d12bf18	0.035826772
253	0x3d369c88	0.044582874
254	0xbcd3c4ed	-0.025850737
255	0x3cd6897a	0.0261886

conv3.weight f4 [24, 48, 1, 1]
0	0x3db967ee	0.09053026
1	0x3d6018af	0.05471104
2	0xbcbee446	-0.023302209
3	0xbd40f708	-0.047110587
4	0xbde72ecf	-0.11288225
5	0xbdbbd8c5	-0.09172205
6	0x3d1d0c75	0.038341958
7	0x3e4ae56f	0.19814084
8	0x3c8fa4ea	0.017534692
9	0x3dd87dca	0.10570867
10	0xbd56161c	-0.05226718
11	0xbc8fec1e	-0.017568644
12	0x3e05a825	0.13052423
13	0x3d4401c6	0.047853254
14	0xbdae4923	-0.085100435
15	0x3c8d0142	0.017212514
16	0x3dcc2e92	0.0996982
17	0x3d946779	0.07246298
18	0x3d4f72a4	0.05064644
19	0x3c3a3192	0.011364358
20	0x3c8ef952	0.01745287
21	0xbd059ea8	-0.03262201
22	0x3e6a899b	0.22904055
23	0xbd95254b	-0.07282504
24	0x3c318269	0.010834315
25	0x3d19ff91	0.037597243
26	0xbdda4155	-0.10656992
27	0x3ca6fbc1	0.020383717
28	0xbbc4d11a	-0.006006372
29	0x3de7aeee	0.11312662
30	0x3e31b95b	0.17355864
31	0x3cc82d2f	0.024435608
32	0xbb7cb660	-0.0038560852
33	0xbe1b9843	-0.15194802
34	0xbce8da03	-0.028424269
35	0x3be0a623	0.0068557425
36	0x3d1a3dce	0.037656598
37	0x3ba40634	0.0050056223
38	0x3da72db4	0.08163014
39	0x3c1d474c	0.009599518
40	0xbdf028d4	-0.11726537
41	0x3c49c432	0.012314843
42	0xbdac9185	-0.08426193
43	0xbc26e4b7	-0.010186366
44	0xbcab3c18	-0.020902678
45	0x3cb92412	0.022600207
46	0x3c16dd81	0.009208084
47	0x3cf00391	0.029298576
48	0x3d34e181	0.04416037
49	0xbcb3ab99	-0.02193241
50	0xbc00eb26	-0.007868564
51	0xbbc19063	-0.005907105
52	0xbda328cb	-0.07966765
53	0x3e10bde9	0.14134945
54	0xbd6492bd	-0.055804003
55	0xbde05908	-0.10954481
56	0xbdb42593	-0.08796229
57	0x3e1a733f	0.15083025
58	0x3d4ee5cf	0.05051213
59	0x3bcd7c10	0.006270893
60	0xbc098828	-0.008394279
61	0x3e0b9401	0.13630678
62	0xbdcae0b2	-0.099061385
63	0xbcddc8a0	-0.027073205
64	0xbd9b9cc7	-0.07598262
65	0x3d461ad7	0.04836544
66	0xbd08c1f6	-0.0333881
67	0xbe23e60b	-0.16005723
68	0x3d1294db	0.03578649
69	0x3e078fab	0.13238399
70	0x3d71056e	0.05884307
71	0x3da9393e	0.08262871
72	0xbe174a4f	-0.1477444
73	0x3e30ff93	0.17284994
74	0xbdfc7897	-0.12327688
75	0xbd082f23	-0.033248078
76	0xbcc90191	-0.02453688
77	0xbd88fdbb	-0.0668902
78	0x3da7e90f	0.08198749
79	0x3dcbf375	0.09958545
80	0x3d924701	0.07142449
81	0x3db9d170	0.0907315
82	0x3dff0649	0.12452371
83	0x3d0d358c	0.034474894
84	0x3d610c61	0.054943446
85	0xbd59ede1	-0.053205375
86	0x3de6e777	0.11274617
87	0x3e0cbb22	0.1374326
88	0x3cf190d7	0.02948801
89	0x3e052766	0.1300331
90	0x3df30835	0.118668
91	0xbc4e9073	-0.012607682
92	0xbdae5a70	-0.08513343
93	0x3d439d34	0.047757342
94	0xbe391b3f	-0.180768
95	0x3b3c0ff4	0.0028696032
96	0xbd6f1f90	-0.05837971
97	0x3d9691e8	0.07352048
98	0x3cc6e181	0.02427745
99	0xbcdb28d0	-0.02675286
100	0x3c457643	0.012052122
101	0xbe055a68	-0.13022768
102	0xbc047655	-0.008084853
103	0xbc05c3c1	-0.008164347
104	0xbd9732db	-0.07382747
105	0x3dbf45fd	0.09339521
106	0xbcb49578	-0.022043929
107	0x3c86adc3	0.016440278
108	0x3c3b00c8	0.0114137605
109	0xbe056720	-0.1302762
110	0x3d2eb674	0.04265447
111	0x3e240d86	0.16020784
112	0x3deecac6	0.1165977
113	0x3db7b46b	0.08969959
114	0x3ceefbac	0.02917274
115	0xbde0e9e8	-0.10982114
116	0x3d1e128c	0.038591906
117	0x3d997beb	0.074943386
118	0x3d960bbb	0.07326456
119	0xbd7e5e2e	-0.062101535
120	0xbcbd002b	-0.02307137
121	0x3c9e17f2	0.019298527
122	0x3ba01b83	0.004886092
123	0xbdba3613	-0.09092345
124	0xbcac5b2d	-0.02103957
125	0xbe364272	-0.17798784
126	0xbc768c84	-0.01504815
127	0x3e25579b	0.161467
128	0xbc1e8a75	-0.009676565
129	0x3e2b81bf	0.16748713
130	0x3e16ac96	0.14714274
131	0xbd2949f9	-0.04133031
132	0xbcec6d81	-0.02886081
133	0x3d0f6b0b	0.035014194
134	0x3e119911	0.14218546
135	0xbd7d9840	-0.061912775
136	0x3df992c8	0.121861994
137	0xbdb5df00	-0.088804245
138	0x3d6b93ae	0.057513885
139	0x3d40d891	0.047081534
140	0x3df7eca3	0.12105682
141	0xbcb14c74	-0.021642901
142	0xbce354de	-0.027750429
143	0x3e0e7a96	0.1391395
144	0x3e0baadd	0.13639398
145	0x3d204f54	0.039138153
146	0x3da5bae6	0.08092289
147	0xbd647d94	-0.055783823
148	0xbdef1505	-0.11673931
149	0x3d610d70	0.054944456
150	0x3cc63223	0.024193829
151	0xbdabedbd	-0.08394954
152	0x3e0b6fa5	0.13616808
153	0x3d14f35b	0.036364894
154	0x3d44ad9c	0.04801713
155	0x3c37dbdf	0.011221855
156	0x3dab2dec	0.08358368
157	0x3d6b7beb	0.057491224
158	0xbda701a2	-0.08154608
159	0xbe11ebf0	-0.1425016
160	0x3e35ba60	0.17746878
161	0xbd01e070	-0.03170818
162	0xbc5f00dc	-0.013611045
163	0x3d6b1bc1	0.057399515
164	0xbcbe1bed	-0.023206675
165	0x3dbc99c6	0.092090175
166	0xbba92ff5	-0.0051631876
167	0xbe2bf706	-0.1679345
168	0x3d3a0852	0.04541809
169	0xbd404637	-0.046941962
170	0x3dac0002	0.08398439
171	0xbd8039e0	-0.06261039
172	0xbbb2d526	-0.005457538
173	0xbb62a44e	-0.0034582797
174	0xbe0b0c4e	-0.13578913
175	0x3df2898a	0.1184264
176	0xbc84beec	-0.01620432
177	0x3c94ccc3	0.018164044
178	0x3e02f64c	0.12789267
179	0xbc133d77	-0.008986822
180	0xbccea62f	-0.025225727
181	0x3cc4fb92	0.02404574
182	0x3d2419ef	0.040063795
183	0xbe016ae1	-0.12638427
184	0xbd101030	-0.035171688
185	0x3d67199b	0.056420904
186	0x3e131d06	0.1436654
187	0xbcaa7127	-0.020805908
188	0x3dae12fc	0.08499715
189	0x3bebd60a	0.0071971463
190	0x3d22ec3e	0.03977608
191	0x3d565e95	0.052336294
192	0x3de2c58a	0.11072834
193	0x3d3cb671	0.046072427
194	0xbd039582	-0.032125004
195	0x3dc250a8	0.0948804
196	0xbe129309	-0.14313902
197	0x3db4b7f2	0.08824147
198	0x3d2144c1	0.03937221
199	0xbdb36301	-0.08759118
200	0x3d844fa1	0.064605005
201	0xbd002222	-0.03128255
202	0xbd8d301d	-0.068939425
203	0x3d3c4cc4	0.045971647
204	0xbe3e0a71	-0.1855867
205	0xbd6f17f4	-0.058372453
206	0x3c4b3d3c	0.012404736
207	0xb9f8e8ad	-0.00047475603
208	0x3e5444fc	0.2072944
209	0xbd095939	-0.033532355
210	0x3cae8252	0.021302376
211	0xbd1a8197	-0.037721243
212	0x3d0c8587	0.03430703
213	0xbda16d3f	-0.07882165
214	0x3d8b304a	0.0679632
215	0x3e0a2c2b	0.13493411
216	0x3d023da8	0.03179708
217	0x3c95d39a	0.018289376
218	0x3e23211f	0.15930603
219	0xbde6f071	-0.11276329
220	0x3d6cb864	0.057793036
221	0xbda55bc7	-0.08074146
222	0x3d06a700	0.032874107
223	0x3ceec598	0.029146954
224	0x3e279099	0.16363753
225	0xbd76ba01	-0.06023598
226	0xbdc3da1a	-0.09563084
227	0x3d48972c	0.048972294
228	0x3cb61bc0	0.02223003
229	0xbcb29795	-0.021800796
230	0xbd86e6b7	-0.06586974
231	0x3e4640da	0.19360676
232	0x3dc747e7	0.09730511
233	0x3d4256ed	0.04744618
234	0xbe1c1969	-0.15244068
235	0xbceeb669	-0.029139714
236	0xbcf9a869	-0.030475812
237	0x3d91cfb0	0.07119691
238	0x3da4674e	0.08027516
239	0x3d98d2a3	0.07462051
240	0x3dee11da	0.11624499
241	0x3d826dad	0.06368575
242	0x3dca959f	0.09891819
243	0xbccb565b	-0.024821451
244	0x3e052e7f	0.13006018
245	0xbd3b737d	-0.045764435
246	0x3dbd3ea0	0.092404604
247	0xbda77d14	-0.08178154
248	0x3d637819	0.055534456
249	0xbd2a4dd0	-0.041578114
250	0xbe89e393	-0.26931438
251	0xbb69d92e	-0.0035682428
252	0xbbbe9d94	-0.0058171246
253	0x3e194776	0.14968666
254	0x3db961f9	0.0905189
255	0xbd17bed6	-0.03704723

conv4.weight f4 [24, 96, 1, 1]
0	0x3d08ad29	0.033368263
1	0x3aaf49db	0.0013373451
2	0xbe2e891f	-0.17044495
3	0xbdcba98b	-0.09944447
4	0xbd91c427	-0.07117491
5	0x3d941e00	0.072322845
6	0xbc850220	-0.016236365
7	0x3d0ad507	0.033894565
8	0x3d56992c	0.05239217
9	0x3dddbe0c	0.10827264
10	0xbbab52fa	-0.0052283974
11	0x3c541087	0.012943394
12	0x3d9400e1	0.0722673
13	0xbc40cf91	-0.011768238
14	0x3cc47dbe	0.02398574
15	0xbc24672d	-0.010034365
16	0xbd6e84a2	-0.058231957
17	0xbc629cde	-0.013831345
18	0xbbec030b	-0.007202511
19	0xbac38248	-0.0014916146
20	0x3da00eb1	0.07815302
21	0xbce13ace	-0.02749386
22	0x3d932e3c	0.07186553
23	0xbd0d092d	-0.03443258
24	0xbd79f4df	-0.061024543
25	0xbd7d74bf	-0.061878916
26	0x3d89d206	0.06729512
27	0x3d5dba2b	0.05413262
28	0x3c260ab1	0.010134385
29	0x3d5f6270	0.054537237
30	0x3d23b19f	0.039964315
31	0xbdf5d8ca	-0.1200424
32	0xbd23f03c	-0.040024027
33	0xbd812903	-0.063066505
34	0xbd9a1177	-0.075228624
35	0x3d044d2c	0.03230016
36	0x3bc3ea73	0.0059788763
37	0x3d0eb3f6	0.034839593
38	0xbc3473a9	-0.011013904
39	0x3ceca358	0.028886482
40	0x3cbaa558	0.02278392
41	0xbd9bfab4	-0.07616177
42	0x3dba2662	0.09089352
43	0xbd28e6f4	-0.04123588
44	0x3d205a9b	0.039148908
45	0xbd2bde53	-0.04196007
46	0x3cc8c942	0.02451003
47	0xbcd94d57	-0.026526136
48	0x3c453845	0.0120373415
49	0x3d9a04f7	0.07520478
50	0x3d900f3b	0.07034155
51	0xbdb20a20	-0.086933374
52	0x3dffb19a	0.12485047
53	0x3d2a48c4	0.0415733
54	0x3d8a49d5	0.067523636
55	0x3da239de	0.079211935
56	0xbd938622	-0.07203318
57	0xbbea787b	-0.0071554757
58	0x3d5b12e6	0.05348482
59	0xbd69feac	-0.05712764
60	0xbcf07628	-0.029353216
61	0xbcc46131	-0.023972126
62	0x3d5a5518	0.053303808
63	0xbd8786f3	-0.066175364
64	0x3d782b4e	0.060588174
65	0x3bb3b68e	0.0054844087
66	0x3cd1e4f2	0.025621865
67	0x3c9cb1c5	0.019127736
68	0xbc87d276	-0.016579848
69	0xbda50630	-0.08057821
70	0xbd8bfb23	-0.0683501
71	0x3d99f44d	0.075173
72	0x3d1303d7	0.035892334
73	0x3cdccc4e	0.026952889
74	0xbded0170	-0.1157254
75	0x3db1cf07	0.086820655
76	0x3cba2fac	0.02272781
77	0xbdaa35c9	-0.0831104
78	0x3db574d1	0.088601716
79	0x3dc7891c	0.097429484
80	0x3d9c9530	0.07645643
81	0xbc0bc25e	-0.0085302275
82	0x3d61cabc	0.055124983
83	0xbd98e2ed	-0.07465158
84	0xbdeaa1e1	-0.11456657
85	0x3c892d48	0.016745225
86	0xbb24a76f	-0.0025124212
87	0xbcb2ca15	-0.021824876
88	0xba99103c	-0.0011677812
89	0x3dce6ee7	0.10079747
90	0xbae549e2	-0.0017493332
91	0xbca7bf5d	-0.020476991
92	0x3e1f9c4c	0.15586966
93	0x3d7af9b3	0.061273288
94	0x3da17315	0.07883278
95	0xbd73e5af	-0.059545215
96	0x3db54405	0.08850864
97	0x3d0c2c8c	0.03422217
98	0xbb976a8f	-0.004620857
99	0x3d0a5b31	0.033778373
100	0x3d1cd892	0.038292475
101	0xbcdda14c	-0.027054451
102	0x3dae437a	0.08508964
103	0xbc222ccf	-0.0098983785
104	0x3ce3c122	0.027802054
105	0x3da3c5f1	0.07996739
106	0x3c2ca6d6	0.010537824
107	0x3d489d23	0.048977982
108	0x3d649ee3	0.05581559
109	0x3db142e7	0.08655339
110	0x3da1a30e	0.07892428
111	0x3d80625c	0.062687606
112	0x3d96ef6e	0.07369886
113	0xbc03f6fa	-0.008054489
114	0x3d877a6f	0.06615149
115	0xbd6fea98	-0.058573335
116	0xbda47bc4	-0.08031419
117	0xbdb73f74	-0.089476496
118	0xbc058334	-0.008148957
119	0xbcc8f065	-0.024528692
120	0x3d2db945	0.042413015
121	0xbd664a49	-0.056223188
122	0xbd86d900	-0.06584358
123	0x3ce92d1e	0.028463896
124	0xbdaa6e4f	-0.08321821
125	0x3aa7efad	0.0012812518
126	0xbcfae243	-0.030625468
127	0x3d868683	0.06568625
128	0xbcc31dcb	-0.023817917
129	0xbd94b165	-0.07260398
130	0x3dac0693	0.083996914
131	0x3da4d019	0.08047504
132	0x3ce9cd1e	0.02854019
133	0xbb1b102d	-0.0023660765
134	0x3b1f3470	0.002429273
135	0xbc6e52ec	-0.014546137
136	0xbb8e0960	-0.0043346137
137	0x3c37482e	0.011186643
138	0x3d891359	0.066931434
139	0xbc834f96	-0.01602916
140	0x3d849d29	0.064752884
141	0xbd4630be	-0.048386328
142	0xbe03a38e	-0.1285536
143	0x3ba2716d	0.004957369
144	0xbd8f79a8	-0.07005626
145	0x3ca7cd3c	0.020483606
146	0xb883f0c3	-6.291412e-05
147	0x3c565b29	0.013083258
148	0xbd83b472	-0.064309016
149	0x3cfd3b76	0.030912142
150	0x3c46dcb0	0.012137577
151	0x3d927e9c	0.07153055
152	0x3dd36769	0.10322458
153	0xbca8266a	-0.02052613
154	0xbdbdf084	-0.0927439
155	0x3d754066	0.05987587
156	0xbd15acfe	-0.03654193
157	0xbd4fa9b9	-0.05069897
158	0xbdf44065	-0.11926345
159	0xbcaf888b	-0.021427413
160	0x3d6f2fe8	0.058395296
161	0x3d75a585	0.059972305
162	0xbdc7e5d8	-0.09760636
163	0xbca42837	-0.020038707
164	0xbd7289c2	-0.059213407
165	0xbda9b7a3	-0.08286979
166	0x3d608030	0.05480975
167	0xbd92a6eb	-0.07160743
168	0x3d5148d3	0.05109484
169	0xbd98ae8d	-0.07455168
170	0x3c189e02	0.009315016
171	0xbd931d53	-0.071833275
172	0xbd076195	-0.033052046
173	0xbc4d1e17	-0.012519381
174	0x3daee865	0.085404195
175	0xbd55358c	-0.05205302
176	0xbd12d50e	-0.035847716
177	0x3dda1a61	0.106495626
178	0x3da40842	0.080093876
179	0xbcd23dce	-0.025664236
180	0xbd67f59d	-0.05663072
181	0x3da63649	0.08115823
182	0x3a5a72b4	0.0008333132
183	0x3c283967	0.010267592
184	0xbc1334e7	-0.008984781
185	0xbc7d8ab9	-0.015474969
186	0x3d7606a4	0.060064927
187	0xbd1e43af	-0.038638767
188	0x3c34882e	0.011018796
189	0xbc27b8ea	-0.010236958
190	0x3de7f82b	0.11326631
191	0xbaf622a8	-0.0018778639
192	0x3db7a464	0.08966902
193	0xba66c1ed	-0.0008802701
194	0xbd1fd1d6	-0.039018475
195	0xbd2e6e21	-0.042585496
196	0xbcdc04cf	-0.026857762
197	0x3cfc7e24	0.030821867
198	0x3d37787e	0.044792645
199	0x3db5a930	0.088701606
200	0xbd82708c	-0.06369123
201	0xbcf0e9aa	-0.029408295
202	0x3dbe7051	0.092987664
203	0xbc9e70cf	-0.0193409
204	0x3ca8537b	0.02054762
205	0xbab48134	-0.0013771416
206	0xbd4c905e	-0.049942367
207	0xbc0c5ba5	-0.008566772
208	0xbcd89042	-0.026435975
209	0x3cee5316	0.029092353
210	0xbd6a0f03	-0.057143223
211	0x3d23e057	0.04000887
212	0xbd0886f1	-0.033331815
213	0xbc04d311	-0.008106963
214	0x3d990b8c	0.074729055
215	0x3d72b8d3	0.059258293
216	0xbd8a641f	-0.06757378
217	0x3dbb41b7	0.091433935
218	0x3d079b68	0.03310719
219	0x3d26bb99	0.04070625
220	0x3cc68836	0.024234872
221	0x3d98f858	0.07469243
222	0xbd583a60	-0.052790046
223	0x3c3bac77	0.011454693
224	0x3d971d77	0.07378667
225	0x3d113343	0.035449278
226	0xbc272227	-0.010201014
227	0x3cba6c01	0.022756578
228	0x3c1bd1c3	0.00951046
229	0x3d63803f	0.055542227
230	0xbda86132	-0.082216635
231	0xbccb63db	-0.024827888
232	0x3d5e3bc2	0.05425621
233	0xbc6355f9	-0.013875478
234	0xbd6e4e38	-0.058180064
235	0xbd12210a	-0.03567604
236	0xbd1efe08	-0.03881648
237	0xbd9a3859	-0.07530279
238	0xbd9cf023	-0.0766299
239	0xbd8b27c3	-0.06794693
240	0x3d2dbe7d	0.042417992
241	0xbc83633e	-0.016038533
242	0x3dbc471f	0.09193253
243	0xbda7448d	-0.08167372
244	0xbb86d9a8	-0.004115302
245	0x3d4a6d2c	0.04942052
246	0x3de31c18	0.11089343
247	0x3d9ac1ed	0.0755652
248	0x3d63cab0	0.05561322
249	0xbce9d001	-0.028541567
250	0xbd97c836	-0.07411234
251	0x3db0789a	0.08616753
252	0x3d0a2934	0.0337307
253	0x3dcf970b	0.10136231
254	0x3d4f7a69	0.05065385
255	0x3da91c59	0.0825736
